…
1:46:53.611170Z","iopub.execute_input":"2026-03-06T01:46:53.611775Z","iopub.status.idle":"2026-03-06T01:46:53.651477Z","shell.execute_reply.started":"2026-03-06T01:46:53.611758Z","shell.execute_reply":"2026-03-06T01:46:53.650503Z"}},"outputs":[{"name":"stdout","text":"============================================================\nDEEP LEARNING MODEL - GEOMETRIC ATTENTION NETWORK\n============================================================\n\nInitializing RNA Geometric Attention Network...\nModel parameter count: 1,552,932\nRNAGeometricAttentionNetwork(\n  (input_embedding): Sequential(\n    (0): Linear(in_features=5, out_features=256, bias=True)\n    (1): LayerNorm((256,), eps=1e-05, elementwise_affine=True)\n    (2): ReLU()\n    (3): Dropout(p=0.1, inplace=False)\n  )\n  (attention_layers): ModuleList(\n    (0-3): 4 x GeometricAttention(\n      (q_proj): Linear(in_features=256, out_features=256, bias=True)\n      (k_proj): Linear(in_features=256, out_features=256, bias=True)\n      (v_proj): Linear(in_features=256, out_features=256, bias=True)\n      (distance_proj): Sequential(\n        (0): Linear(in_features=1, out_features=64, bias=True)\n        (1): ReLU()\n        (2): Linear(in_features=64, out_features=8, bias=True)\n      )\n      (out_proj): Linear(in_features=256, out_features=256, bias=True)\n      (dropout): Dropout(p=0.1, inplace=False)\n      (layer_norm): LayerNorm((256,), eps=1e-05, elementwise_affine=True)\n    )\n  )\n  (pair_update): Sequential(\n    (0): Linear(in_features=512, out_features=256, bias=True)\n    (1): ReLU()\n    (2): Linear(in_features=256, out_features=256, bias=True)\n  )\n  (coord_head): Sequential(\n    (0): Linear(in_features=256, out_features=256, bias=True)\n    (1): ReLU()\n    (2): Dropout(p=0.1, inplace=False)\n    (3): Linear(in_features=256, out_features=256, bias=True)\n    (4): ReLU()\n    (5): Linear(in_features=256, out_features=3, bias=True)\n  )\n  (confidence_head): Sequential(\n    (0): Linear(in_features=256, out_features=128, bias=True)\n    (1): ReLU()\n    (2): Dropout(p=0.1, inplace=False)\n    (3): Linear(in_features=128, out_features=1, bias=True)\n    (4): Sigmoid()\n  )\n)\n","output_type":"stream"}],"execution_count":16},{"cell_type":"code","source":"print(\"=\"*60)\nprint(\"TRAINING THE GEOMETRIC ATTENTION MODEL\")\nprint(\"=\"*60)\n\n# Prepare training data\ndef prepare_dataloaders(train_features, val_features, batch_size=16):\n    \"\"\"Create PyTorch DataLoaders\"\"\"\n    \n    # Filter fe
…
