…
     "start_time": "2026-03-06T06:32:10.786951",
     "status": "completed"
    },
    "tags": []
   },
   "outputs": [
    {
     "name": "stdout",
     "output_type": "stream",
     "text": [
      "============================================================\n",
      "DEEP LEARNING MODEL - GEOMETRIC ATTENTION NETWORK\n",
      "============================================================\n",
      "\n",
      "Initializing RNA Geometric Attention Network...\n",
      "Model parameter count: 1,552,932\n",
      "RNAGeometricAttentionNetwork(\n",
      "  (input_embedding): Sequential(\n",
      "    (0): Linear(in_features=5, out_features=256, bias=True)\n",
      "    (1): LayerNorm((256,), eps=1e-05, elementwise_affine=True)\n",
      "    (2): ReLU()\n",
      "    (3): Dropout(p=0.1, inplace=False)\n",
      "  )\n",
      "  (attention_layers): ModuleList(\n",
      "    (0-3): 4 x GeometricAttention(\n",
      "      (q_proj): Linear(in_features=256, out_features=256, bias=True)\n",
      "      (k_proj): Linear(in_features=256, out_features=256, bias=True)\n",
      "      (v_proj): Linear(in_features=256, out_features=256, bias=True)\n",
      "      (distance_proj): Sequential(\n",
      "        (0): Linear(in_features=1, out_features=64, bias=True)\n",
      "        (1): ReLU()\n",
      "        (2): Linear(in_features=64, out_features=8, bias=True)\n",
      "      )\n",
      "      (out_proj): Linear(in_features=256, out_features=256, bias=True)\n",
      "      (dropout): Dropout(p=0.1, inplace=False)\n",
      "      (layer_norm): LayerNorm((256,), eps=1e-05, elementwise_affine=True)\n",
      "    )\n",
      "  )\n",
      "  (pair_update): Sequential(\n",
      "    (0): Linear(in_features=512, out_features=256, bias=True)\n",
      "    (1): ReLU()\n",
      "    (2): Linear(in_features=256, out_features=256, bias=True)\n",
      "  )\n",
      "  (coord_head): Sequential(\n",
      "    (0): Linear(in_features=256, out_features=256, bias=True)\n",
      "    (1): ReLU()\n",
      "    (2): Dropout(p=0.1, inplace=False)\n",
      "    (3): Linear(in_features=256, out_features=256, bias=True)\n",
      "    (4): ReLU()\n",
      "    (5): Linear(in_features=256, out_features=3, bias=True)\n",
      "  )\n",
      "  (confidence_head): Sequential(\n",
      "    (0): Linear(in_features=256, out_features=128, bias=True)\n",
      "    (1): ReLU()\n",
      "    (2): Dropout(p=0.1, inplace=False)\n",
      "    (3): Linear(in_features=128, out_features=1, bias=True)\n",
      "    (4): Sigmoid()\n",
      "  )\n",
      ")\n"
     ]
    }
   ],
   "source": [
    "# Cell 8: Deep Learning Model - Geometric Attention Network\n",
    "print(\"=\"*60)\n",
    "print(\"DEEP LEARNING MODEL - GEOMETRIC ATTENTION NETWORK\")\n",
    "print(\"=\"*60)\n",
    "\n",
    "# Based on ProRNA3D-single architecture [citation:2]\n",
    "\n",
…
